checkpoints/a7a0q7ar.ckpt (torch, 150455 bytes, 73 tensors)

weight f4 [16, 4, 15]
00000000: 59e1 c53d ffba 18bc e6e6 003e dab9 c03d
00000010: 3f44 e83d 8397 143d 247c f4bd b792 ae3d
00000020: 3d62 fe3d 8474 8a3c dbb7 04be d590 e5bd
00000030: 0bb5 cd3d a5de d73c 8870 a03d ad9f 4e3d
00000040: 0a1c 9f3d fefa 493c 6a86 44bd 3ce4 133c
00000050: 299c eb3d a69f af3d a383 903d 0296 b1bd
00000060: fa92 06bd b2b2 dc3d a0fe bd3d 9dee 613d
00000070: 09f5 47bd 1a91 a1bd e043 84bd 4e22 e9bd
00000080: b0e8 ed3d 7148 67bd b2dc 443d e943 2b3d
00000090: 741f 0ebd 876f 233b 9f66 a23d 32fa de3b
000000a0: 9f80 babd 32e9 50bc beba f33d 03de e0bc
000000b0: ee2e ad3d 578f cabd a7a8 b2bd eebf 6bbd
000000c0: b398 9f3d d7b7 d93d 7d53 fe3d 8789 82bd
000000d0: 17c0 2d3d f6f8 96bd d0f8 073e 33aa 4b3d
000000e0: f2ff da3d e0ce c5bd e43d 7bbd 8c18 fdbd
000000f0: 3d5c a0bd e30c a33c b198 78ba db7b 5ebd
00000100: 3593 a2bc 7344 ec3d c193 c4bd 6441 ba3d
00000110: bf7a 943d 2cb6 e6bd c3bc 5dbd e81d 8c3c
00000120: f1ae ad3c 0409 873d 8ce0 2a3d 4688 d3bc
00000130: 5249 063d e2aa bc3d 7154 e8bd 37f8 29bd
00000140: d94c 34bd c348 5dbd b61f 0d3d 661a 2c3d
00000150: 935f c53d 0ed3 4d3d e251 283d fc75 4dbd
00000160: 0a74 10bd dedc 1a3d 14b3 853d d175 313d
00000170: f6dc 4abd eab1 3d3a 73b8 11bd 2ba9 013e
00000180: 117e 823d 050c 063c 5435 ca3d 420e a3bc
00000190: 61d4 923d 6687 623d 6121 96bc 6492 e93d
000001a0: 9dcf 93bd 11fc febd 7582 b6bd 7051 4a39
000001b0: 1ec1 d23d b895 21bd 5aff 073c f4fd 90bd
000001c0: 1f7b 52bd 13eb fc3d 046e bd3d 98b7 5d3c
000001d0: fbd1 723d 404f f9bc bba7 523d 69a9 d93d
000001e0: 08e3 93bc d397 a13d 6ed1 e53d c37e c6bd
000001f0: ab56 20bd 5543 af3b 0b82 e2bd 8e99 92bd
00000200: 888f 70bd 2b93 c73d f16e 713d adf2 d13d
00000210: 607e a1bd 2d38 c4bc 39e0 ce3d b335 10bd
00000220: ff4d 413d c43b c43d a7ba e23d 428b 16bc
00000230: 381a a43b 6773 95bd 26a9 b6bd 5610 f7bc
00000240: 71e8 d23d 905a 973d 8367 83bd 631a ce3d
00000250: ee31 abbd 87e3 6e3b f4c4 2ebd 7695 39bd
00000260: 4688 b8bd 053d 9bbd bd55 91bd 582d 00bc
00000270: cff2 6c3c 3b8a b7bd 46ae 633d eaeb d8bc
00000280: 7f15 00be ff1b 03bd 919b c63d 34fd b9bd
00000290: 077c 253d 0ea3 803d 00e5 65bd e670 a5bd
000002a0: 2b94 02bc 61a7 f93d 620c f3bd fdcd d63d
000002b0: 0fa5 e03d c563 123d 28c5 8bbd e0ba dc3c
000002c0: 308b c9bc 8042 f73d 74ac 543c afbe 48bc
000002d0: 2751 913d 0199 58bd 617a 73bc 4355 e4bd
000002e0: bb4e c2bd 7fde f7bc 2353 a23d 78de afbd
000002f0: ad30 eebd 1218 a8bd 9d26 ba3b f824 923c
00000300: f887 f63d 1d75 3bbd 53ed 093d e194 583b
00000310: afc0 24bd 25d5 ec3d 22cb 5d3d 408c 343d
00000320: 95ed 30bd 2202 933d 1426 debd 7ee6 f03d
00000330: 85eb 16bd 7332 b93d aa69 f7bb d616 5ebd
00000340: 66cc 683d f08c 953c ad90 bf3d 42a3 7ebd
00000350: 7eb1 d03d 49cc dc3c 5794 9bbd 412e c73d
00000360: 2b06 363c a1e7 7f3d 7a40 52bc ae28 9fbd
00000370: 9691 583d f5fc debb 3cd2 da3d c695 1bbd
00000380: 7f31 17bc d215 273c f3e8 61bd b199 eabb
00000390: be67 93bd c7e2 a6bd 12cd 4dbd 91fe f2bd
000003a0: ac33 b73d 4ad4 f23d dcee 953c 217b d03d
000003b0: 31b6 48bd b482 ac3c cd26 72bd f6a9 6e3c
000003c0: f3ac 11bd 3d85 f4bc 41ea 86bd 055c 31bd
000003d0: fca3 4b3d f42d f1bc bf62 73bd 1602 d1bc
000003e0: 3857 f0bd a81d ba3d 477b 94bc bb03 ac3c
000003f0: 2922 8d3c fb55 ce3d 55e7 d8bd 1794 cdbd
0.09662122 -0.009321927 0.12588081 0.09410448 0.11341142 0.036277305 -0.119377404 0.085240774
0.12421081 0.016901262 -0.1296076 -0.11209265 0.10044297 0.026351282 0.07833964 0.050445247
0.0776902 0.012327908 -0.04797975 0.009026583 0.115043946 0.085753724 0.07056358 -0.0867119
-0.03285501 0.10776271 0.092770815 0.0551592 -0.048817668 -0.07889004 -0.06458259 -0.11383496
0.11616647 -0.05646557 0.048062034 0.04181281 -0.034697965 0.0024938302 0.0792973 0.006804728
-0.09106564 -0.012750911 0.119008526 -0.027449613 0.08456217 -0.09890621 -0.08723574 -0.057556085
0.07792797 0.10630768 0.12418268 -0.063738875 0.04241952 -0.07371704 0.13278508 0.04972286
0.10693349 -0.09658599 -0.06133832 -0.123581976 -0.07830093 0.019903606 -0.0009483202 -0.054317337
-0.019845584 0.11536493 -0.09598494 0.090945035 0.072499745 -0.11265215 -0.054135095 0.017104104
0.021201583 0.065935165 0.04171805 -0.025821816 0.032784767 0.09212281 -0.11344231 -0.04149648
-0.0440186 -0.05402447 0.03445407 0.042017363 0.0963737 0.050250106 0.041093715 -0.050161347
-0.035266913 0.03780829 0.06528297 0.04332525 -0.04952713 0.0007236289 -0.035576295 0.12662189
0.063717015 0.008181577 0.09873453 -0.01990426 0.07169414 0.055304907 -0.018326463 0.11404875
-0.072173335 -0.124504216 -0.089116015 0.00019294559 0.102907404 -0.039449424 0.008300627 -0.07079688
-0.05138695 0.12349524 0.092494994 0.013532542 0.059282284 -0.030433297 0.05142949 0.106280155
-0.018052593 0.07890286 0.11221586 -0.09692147 -0.039145153 0.005348603 -0.1105996 -0.071581945
-0.058730632 0.09744867 0.058943693 0.10251365 -0.07885432 -0.023952568 0.10101361 -0.03520746
0.047193523 0.09581712 0.11070757 -0.009188475 0.0050080083 -0.07297402 -0.08918981 -0.030159157
0.10298241 0.0739032 -0.06416228 0.100636266 -0.08359133 0.0036451535 -0.042668298 -0.045308553
-0.09010367 -0.07579998 -0.070964314 -0.007823311 0.014462187 -0.08961912 0.055586122 -0.02647968
-0.125082 -0.03200912 0.09697641 -0.09081498 0.040401485 0.062811 -0.056126595 -0.08078174
-0.007969896 0.12190128 -0.11867596 0.10488508 0.109689824 0.03573968 -0.06824714 0.026944578
-0.024602503 0.12073231 0.012980569 -0.012252494 0.07095557 -0.05288029 -0.01486072 -0.11149075
-0.09487673 -0.030257462 0.07926013 -0.085873544 -0.11630378 -0.08207716 0.0056808726 0.017839894
0.12037653 -0.045765985 0.033673596 0.0033047723 -0.04022282 0.115640916 0.0541488 0.044079065
-0.043195326 0.07178141 -0.108471066 0.11762713 -0.036845703 0.090428255 -0.007550438 -0.054220997
0.056835555 0.01825568 0.093537666 -0.062167414 0.10190104 0.02695288 -0.07596653 0.09725619
0.011109869 0.062476758 -0.012832755 -0.07771431 0.052873217 -0.006805057 0.1068463 -0.037984632
-0.009228109 0.010198073 -0.0551538 -0.0071594347 -0.071975216 -0.08148723 -0.0502444 -0.11864961
0.089454025 0.11856897 0.018302374 0.10179735 -0.049001876 0.021058418 -0.059119035 0.014566889
-0.035565328 -0.02984869 -0.06587649 -0.043300647 0.049716935 -0.029440857 -0.059420343 -0.02551369
-0.11735386 0.09087688 -0.01812519 0.020997873 0.017228203 0.10074993 -0.10590998 -0.100380115

bias f4 [16]
00000000: d86b c13c 6d20 95bb b9b9 b5bd ecab 893d
00000010: 5e40 dfbd 855e ee3d 39a7 7f3d 2310 bfbc
00000020: ec13 253d bc0d c5bb 4572 65bc d4a1 093d
00000030: 34ad 133d 767e 993d 2ef8 0b3b 3fb5 d83c
0.023610994 -0.0045509846 -0.088733144 0.067222446 -0.10900949 0.11639122 0.062415335 -0.023323124
0.040302202 -0.0060136 -0.014004295 0.033601597 0.03605385 0.07494824 0.0021357643 0.026453612

weight f4 [16]
00000000: b00a 7f3f 0938 803f 9220 803f 4746 803f
00000010: 7616 803f 9b2b 7e3f b0df 7e3f f513 803f
00000020: 3ece 7f3f e361 803f 97bc 7e3f 1130 813f
00000030: 1942 7e3f 8d06 7f3f 4217 803f 43fa 7f3f
0.9962568 1.00171 1.000994 1.0021447 1.0006855 0.99285287 0.9956007 1.000609
0.99924076 1.0029873 0.99506515 1.0092794 0.99319607 0.9961937 1.0007098 0.99991244

bias f4 [16]
00000000: 0105 b0bb bb0d 2fbb 3c66 463b 118c 613b
00000010: dcfe dc39 84fc 14bb fb4f 68bb b213 e83a
00000020: 6e1b 17ba b8f4 b9b9 22df b53a 39bf 093c
00000030: 5d29 85bb 2bd1 c33a d809 233c bcfe 1bba
-0.0053716903 -0.0026711065 0.0030273339 0.0034415761 0.00042151555 -0.002273352 -0.0035448063 0.0017706065
-0.000576428 -0.0003546828 0.0013875703 0.008407407 -0.004063769 0.0014939656 0.009951077 -0.0005950739

running_mean f4 [16]
00000000: cdff 893e 22e9 1f3e 157d a0bd 743a 7f3d
00000010: 0452 95be 66c7 8d3e 8724 693e 1ebc 1d3e
00000020: 0d96 6abd e888 0fbe 1c4c 8a3e dd89 923e
00000030: 6b4c 533e 15c4 c8bc 52a8 663d c9d5 b63b
0.26952973 0.15616277 -0.078363575 0.062311605 -0.29164135 0.2769119 0.2276784 0.15403792
-0.057272006 -0.1401707 0.27011192 0.28620806 0.2063462 -0.024507562 0.056312867 0.0055796844

running_var f4 [16]
00000000: 9cb6 a23d 30f0 3a3d df9d 9b3d 74d9 533d
00000010: b9e1 633d 15ed 813d 754d 713d 87a2 823d
00000020: fdc8 5a3d ad68 af3d 71ed 883d 7102 a83d
00000030: d0a3 4d3d 558e 833d b74e 703d 2d78 923d
0.07944986 0.045639217 0.07598471 0.05172105 0.055635188 0.06344048 0.05891176 0.06378656
0.053414334 0.08564887 0.06685913 0.08203591 0.050205052 0.06423632 0.05866882 0.07151828

weight f4 [16, 16, 1]
00000000: cae7 6fbe 6560 5abe c082 a03d a641 7f3e
00000010: 99e8 13be 6cd7 2dbe 1f19 ae3d 5802 d8bd
00000020: dc48 1abe 5a8a d93d 18e9 eebd 12c5 b0bd
00000030: babc 193e bb88 2abe d667 23be db54 e03d
00000040: 819c 4c3e 1efd 5fbb f680 74be 6275 033e
00000050: 9b28 0ebd f34e 2a3e 743e 693e 2afe e7bd
00000060: 5ac3 023e 7be3 75bd d942 5ebd 42d3 0c3d
00000070: 0f03 073e 787d 713d d27c 103e 2db5 343e
00000080: d146 6bbe 3021 27be ee1b 59be 6902 d53b
00000090: c595 7bbc cf69 013e 701a 54be b4e8 6fbe
000000a0: 4204 a3bc ead8 bd3d 9dfb 13be c2d2 1c3d
000000b0: 87bb 5f3e 3598 4e3e 6460 983c cf7b 883d
000000c0: 18eb debd 9da3 75be 0aa6 0dbe 318c dabd
000000d0: c662 9b3c bd7a ba3c b59e 79be 0bcb 22be
000000e0: f33c 673e 1994 8cbd 8fb1 783e 85ee 27be
000000f0: 794f e53d bf58 173e 9434 203e 3bbb 353d
00000100: 0552 a3bd eb78 be3d 2de0 9bbd 1a50 c33d
00000110: d183 10be b512 3bbe d5d0 11be 69b5 793e
00000120: 0759 963d cbcb 17be 3364 52be 5959 8ebd
00000130: ad18 68be 2cbb 153d d068 16be d1f2 e53d
00000140: 03f9 4cbc 2792 3bbc 1397 533e 2144 c93d
00000150: 3c1a 4ebd 1c26 343e 6815 6ebd cd11 9abc
00000160: e995 223e d3b6 743e c6af ffbb 2578 143d
00000170: ca4a 6a3e 10bc 253e 7d98 d73d ae00 7a3e
00000180: 3fb1 21be d474 1bbd 0c3c 673e 85be d8bd
00000190: fd31 9d3d 5815 32bd 36b4 9e3d 2f35 453e
000001a0: aa27 1abe b9de 5a3d b7a3 2fbe f0c6 613e
000001b0: 70ea 29be 3b5c aa3d 9a24 77be 699a f53d
000001c0: 046b 663e 9684 0e3e 344a 05be a027 dc3d
000001d0: b500 4b3e a36a 5dbe 3fc8 623e aab5 9f3c
000001e0: 68ef 6bbe 6615 43be 610d 48be d79e e8bc
000001f0: 6771 e5bc dcb7 a83d ff14 aa3c e872 1ebe
00000200: dddc 173d 4b5a a9bd ccb1 69be b9a8 703e
00000210: 4afc 393e 096b 9f3d 134b cb3d f722 1fbe
00000220: ffc8 67be a996 0c3e 611a e03a 4f4b 01bc
00000230: 429a 38be a85e 513d 54b1 1c3e c846 443e
00000240: ceda 2d3c 32e7 023e 6247 cc3d 734d 773e
00000250: be25 b8bd 062e 15be 801a fd3b f718 683d
00000260: fc1e 1bbe f18b 45be d428 573e 67c6 36be
00000270: 9f8f ff3d e59c babd 4ae0 353e 00eb e1bd
00000280: dfa9 85bd fe6b 643e e868 35be 7db2 623e
00000290: b1e8 3b3e 8f73 f0bd 3ce6 313e f88e b53d
000002a0: d640 643e 1c1f 723e 796e 46be 5055 883d
000002b0: 4e15 173e f153 4c3e 691b 803d 41e8 9c3b
000002c0: 3eb7 9e3d fbfd 393e 79f0 7ebe 346f aabd
000002d0: a2e2 ba3d 007b 353e 860b 803d aa34 23be
000002e0: c047 093d b426 a13d 9fdc d4bd 0dbe 393e
000002f0: 5765 17be 9602 283e ce03 393e ac7f 48be
00000300: 7e6a 8a3d 64c3 20be 1eaa 88bd e7b3 eabd
00000310: 1693 2fbe cac6 0a3d 8874 75be 2adc 7c3e
00000320: 531e 41be 83a2 253e d9cf adbc c273 113e
00000330: 9467 f4bd 24e8 41be d164 c63d fb6c 9bbd
00000340: 66b2 12be c075 6ebe 776f f23d 783f 9fbc
00000350: 5d41 64be 93c9 f43d 9c80 443e 3f6f 66be
00000360: 6248 1ebc 3898 05be 5afc 6fbd 2ab1 1fbe
00000370: 4d82 443e 6055 4cbd a60f b03d a6a5 7a3e
00000380: fa49 73bd 75bc 203e 3775 c93c 2b15 e5bd
00000390: 2741 113e ffa1 653e 7000 2fbe a09c 083e
000003a0: 1f37 7e3e b744 2c3e bf16 29be 9f68 2cbd
000003b0: 27fc 1f3e af05 183d a261 963d 05b8 20be
000003c0: fbbb 1a3d 4a0d 38bc 78bc 6dbe d95e f33d
000003d0: 5f6c 173e d840 edbd f22e 32be 796a 8b3d
000003e0: 4350 ef3d 5e88 ffbd ff18 cb3d 3c98 99bd
000003f0: f39b cabc a5b3 2e3d 6c44 503e dea2 fabc
-0.23428264 -0.21325834 0.078374386 0.24927387 -0.14444198 -0.16976708 0.08500885 -0.10547322
-0.15066856 0.106220916 -0.11665553 -0.08631338 0.150134 -0.16653721 -0.15957579 0.10953685
0.19981577 -0.003417797 -0.2387732 0.12837747 -0.034706693 0.16631679 0.2277773 -0.11327775
0.12769833 -0.060031395 -0.05426297 0.03438116 0.1318476 0.058957547 0.14110115 0.17647238
-0.22976233 -0.16321254 -0.2120206 0.0065005315 -0.015355532 0.12638019 -0.2071321 -0.23428613
-0.019899491 0.09269889 -0.14451452 0.03828693 0.2184888 0.2017525 0.01860065 0.066642396
-0.10884684 -0.23988195 -0.1383287 -0.10671271 0.018967997 0.022763604 -0.24376948 -0.15897767
0.22581844 -0.06864185 0.24286483 -0.16399582 0.11196799 0.14779948 0.15645057 0.04436801
-0.07974628 0.09300407 -0.076111175 0.095367625 -0.14112784 -0.18268855 -0.1423982 0.24385609
0.07341199 -0.14823835 -0.20546035 -0.069506355 -0.22665663 0.036555454 -0.1468842 0.11227954
-0.012510541 -0.01144842 0.20663099 0.09827448 -0.050317988 0.17592663 -0.058125883 -0.018807316
0.15877499 0.23897867 -0.0078029362 0.03624739 0.22880092 0.16185021 0.10527132 0.24414322
-0.1579027 -0.037953213 0.225815 -0.10583214 0.0767555 -0.043477386 0.07749216 0.19258569
-0.15054193 0.05343506 -0.17152296 0.22048545 -0.16593337 0.08318373 -0.24135056 0.11992342
0.2250176 0.13917765 -0.13016587 0.10749745 0.19824488 -0.2162271 0.221467 0.019495804
-0.23040545 -0.19051132 -0.19536354 -0.028396053 -0.028008176 0.082381934 0.020761965 -0.15473521
0.037075866 -0.08269175 -0.2282173 0.23501863 0.18162647 0.07784087 0.09926429 -0.15540682
-0.22635268 0.13729347 0.0017097705 -0.00789149 -0.18027595 0.05111566 0.1530202 0.19167626
0.010611249 0.12783507 0.09974553 0.24150638 -0.08991574 -0.14568338 0.0077241063 0.056664433
-0.15148538 -0.19291665 0.21011668 -0.17849122 0.124785654 -0.091119565 0.1776134 -0.11031151
-0.06526541 0.22306821 -0.177158 0.221384 0.18350483 -0.11740791 0.17372984 0.0886516
0.22290358 0.2364468 -0.1937808 0.06656897 0.14754221 0.19953896 0.06255228 0.004788429
0.077497944 0.18163292 -0.2489642 -0.083219916 0.09125258 0.17722702 0.06252198 -0.15938058
0.03351569 0.0786871 -0.10393643 0.18138905 -0.14784752 0.16407236 0.18067858 -0.19579953
0.06758593 -0.15699536 -0.06673072 -0.11460095 -0.17145953 0.033880986 -0.23970234 0.24693361
-0.18859224 0.16175275 -0.021217274 0.14204314 -0.119338185 -0.18936211 0.09687198 -0.07589146
-0.14325866 -0.23287106 0.118376665 -0.019439444 -0.22290559 0.1195251 0.19189686 -0.22503375
-0.009660812 -0.13046348 -0.05859027 -0.15594926 0.19190331 -0.049886107 0.08596735 0.24477252
-0.05939672 0.1569689 0.024592025 -0.11185678 0.1418501 0.22425078 -0.1709001 0.13340998
0.24825715 0.16823088 -0.16512583 -0.042091962 0.15623532 0.037114795 0.07342841 -0.15695198
0.03777693 -0.011233637 -0.23216426 0.11883325 0.14787434 -0.115846336 -0.1740072 0.068074174
0.116852306 -0.12477182 0.09916877 -0.074997395 -0.024732566 0.04265179 0.20338601 -0.03059524

weight f4 [16]
00000000: 44f4 7f3f 1dd4 7f3f 49f9 7e3f 596c 7f3f
00000010: 6783 7f3f c54c 803f 230a 7e3f 0048 803f
00000020: 0cc1 7f3f 4b6f 803f 8e06 803f aac1 803f
00000030: 88ee 7f3f f2fb 7f3f b53f 803f d94f 7f3f
0.99982095 0.99933034 0.9959913 0.997747 0.9980988 1.0023428 0.9923422 1.0021973
0.9990394 1.0033964 1.0002 1.0059102 0.99973345 0.99993813 1.0019442 0.9973121

bias f4 [16]
00000000: 6e02 1d3b ffa1 aab9 cf92 1abc 29ad 51bb
00000010: 8888 3fbb af8e cd3b 68fe 91bb 34e9 a23a
00000020: c00b 143c fc94 3f3b a48a 1e3b 9a47 753b
00000030: ea8b b03a edef 2d3b e0fc a23b b4e5 11bc
0.0023957747 -0.00032545623 -0.009434416 -0.003199408 -0.0029225666 0.0062731127 -0.0044553764 0.0012429119
0.009036005 0.0029233089 0.0024191523 0.003742671 0.0013469432 0.0026540712 0.0049739927 -0.008904863

running_mean f4 [16]
00000000: 928c 823e 8115 213f 0eb9 12bd 5ee7 5b3e
00000010: d3c3 a7be 3951 753f b473 fe3e 164a bf3e
00000020: 6e2c 6d3e cc63 923d 3b12 5a3f ca8e 253f
00000030: c1c2 6b3e 57ff a53d 776c f03e e0dd 6d3e
0.25497872 0.6292344 -0.035821013 0.21474978 -0.3276659 0.9582706 0.4969765 0.3736121
0.2316148 0.07147941 0.8518407 0.64671004 0.23023511 0.08105343 0.46957752 0.2322917

running_var f4 [16]
00000000: 29fa 9a3d e64a 093e 366f 8b3d ba5e c93d
00000010: 6993 9a3d 5a5b 303e 5a5c 4a3e 90dd f23d
00000020: ed6c aa3d d00c bd3d 39f8 f73d 5f80 603e
00000030: cdfa 8e3d 34fe 993d 9cb7 173e eaf9 f83d
0.075672455 0.13407478 0.06808321 0.09832521 0.075476475 0.17222348 0.19761792 0.11858666
0.08321557 0.092309594 0.121078916 0.2192397 0.0698143 0.075191885 0.14816135 0.12157042

weight f4 [19, 16, 5]
00000000: e8bf 993d 6f64 c23d 572b c13c 5e5e 143b
00000010: e840 a03d 501c e03b 8d99 bdbd 4164 abbd
00000020: 70da c23c e39a c03d c218 793c 156e 50bd
00000030: fefd 733d a20b 61bc beb7 8fbd fc3b 073c
00000040: d1d5 c8bc 4011 1ebc d1af e63d 4c8a b53d
00000050: 15dd 8d3d 1037 a23b 46ac 1ebd 3684 e13c
00000060: ac4d cdbd 3752 d13c 885d c33d 8ca5 2e3c
00000070: ecc7 c9bd c331 4f3c c193 42bd 1c46 8b3d
00000080: a596 803d 0266 8dbd a837 783d 68e1 dbbd
00000090: 15fb bf3d 9f99 453d 7ea1 a3bd 83d2 d03d
000000a0: 648e 973d 2c96 573d 24f9 26bd d33b 493d
000000b0: 3483 223d 08a4 5f3d a2a3 503d 1c7a 833d
000000c0: 027b 913d 23ef 903d ec9f 69bd 118b 163d
000000d0: e4d0 ca3d f404 8fbd 766d ab3d b48b eb3a
000000e0: 49bd 22bd c027 adbd c597 32bd ac75 9abb
000000f0: cb85 0d3b 8f54 ae3b e9f5 033d 6c72 143d
00000100: 9d40 773d edfc cbbd 2482 2dbc f77c 34bd
00000110: c9ce f93c e028 bb3b 9b7c 8cbc d504 a73c
00000120: 0e6a b9bd 0171 993c 8d12 a53c 789e b5bd
00000130: 02a4 87bd 4cc0 64bd a805 e6bc ec1a d03c
00000140: c6c0 c3bd d0a8 e53c ccca c23c 128c 493c
00000150: ebf3 bb3d b07f 643c aa7e 1ebd 468c 76bc
00000160: 85df 24bd f9fb e0bd c877 13bb 81ce 7b3d
00000170: 5a54 9e3c 00ab a1bd 8957 5a3c 4a2c 86bd
00000180: 3b00 493d c79f 2dbd f861 a43d d10d a93d
00000190: 7b34 933d 5858 ccbc 657d b73d 1b5c 85bd
000001a0: d398 8f3d c9fb 573d 1a35 ea3d 8d0d ba3c
000001b0: 7a9a 11bc 2165 07bd 7cc3 79bd df6f be3d
000001c0: 2f79 fa3c 274b 77bd 8b05 3e3b 6bd0 76bc
000001d0: c94c 203d 2e0d bdbd 56b3 d13d e2ba c03d
000001e0: 5161 093d bee6 18bd 89ae b23d 3399 c1bd
000001f0: 88f9 a8bd 26e2 b43d dc11 c73d f626 d13c
00000200: 49d2 abbd 50f3 e33c dfff d53d 6fff 62bc
00000210: 1931 60bd 38b6 a83d 8d01 82bd ae75 32bd
00000220: 29e3 4dbd 69e7 843d 528c 3dbd 2be2 7e3d
00000230: 03d3 79bc ee00 c8bc b84c b3bc c187 1f3c
00000240: fe01 4b3a 46ec 613d 0fa6 513d f618 21bd
00000250: 4d79 91bd b730 cc3d 5375 7f3d 8314 ae3d
00000260: 42e2 19bd 8669 e8bc 49fc d73c b636 ef3b
00000270: 21a9 69bd f6a5 3ebd faee e4ba 46db 70bd
00000280: 0459 c5bd d4a6 a33d 4d19 78bd 8066 163d
00000290: 0173 e13c 5d03 55bd 45c3 9f3d 23e3 b63c
000002a0: 7b76 16bd 955d ea3c c97e 4cbd 7b87 c0bd
000002b0: 0344 b1bc 0976 a8bd 5cd9 f43c 7015 993d
000002c0: f323 0a3d a7f0 f13d c94e 5e3c d294 863d
000002d0: 4f4d 82bd a21a 9bbd 3ec5 86bc 17d4 07bd
000002e0: 0473 0a3d b533 a73d 0477 463d c388 edbb
000002f0: 2d41 bd3d 34e8 d4bd b67c b5bd 6fff 863b
00000300: 244a b4bd 6c24 c63d b667 0c3d 97c1 a0bd
00000310: 22d6 afbd 8aa3 b03d 4571 69bc f0ab d4bd
00000320: 2ca9 81bd be4e 703d 3550 edbc 7abf 8dbb
00000330: 350b b6bd 592f 1a3d 8b9c bf3c 2f69 b83c
00000340: e15e e13d d71e 86bd 9c00 cabd 4b8d c9bc
00000350: 76cf dfbc a175 51bd 4340 753d 67e6 723d
00000360: 7241 97bc 0d73 aa3c e867 d0bd 2e9f 0cbd
00000370: 362e aabd c104 b63d e86a 543d ab45 7c3c
00000380: 7037 80bc ae42 8bbd 59cd 2ebd c986 45bd
00000390: 5fb1 413c 46db a6bd de65 3d3d 5bee a4bd
000003a0: a610 743d b8b5 113c a621 2bbc b8f2 783d
000003b0: 5ac3 bdbd b92a ebbc 7daa 33bd 303c 31bd
000003c0: faac 1cbd 923d c3bd 7054 973d 5093 933d
000003d0: eb4c c5bc bbd9 fa3c 50a1 75bc 2397 eabd
000003e0: c16b 86bd 0c91 debd d41f 453d 4946 9c3b
000003f0: 4c53 423c fca5 9bbd 98a0 acbd 4cd8 d8bd
0.07507306 0.094918124 0.023580236 0.0022639255 0.0782488 0.0068393126 -0.09257803 -0.08368731
0.0237858 0.09404542 0.015203657 -0.050886232 0.059568398 -0.013735684 -0.07017468 0.0082540475
-0.024516018 -0.009647667 0.11264003 0.08864269 0.06926934 0.0049504116 -0.03873851 0.027528863
-0.1002458 0.025551898 0.09539324 0.010659587 -0.09852585 0.012646141 -0.04750419 0.06800482
0.06278733 -0.06904222 0.060599953 -0.10736352 0.09374062 0.048242208 -0.079897866 0.10196402
0.07400206 0.05263345 -0.040764943 0.04912932 0.039675906 0.05459979 0.050937302 0.06419775
0.0710354 0.07076862 -0.05703728 0.036753718 0.09903124 -0.069833666 0.083704874 0.0017970712
-0.039731298 -0.08454847 -0.04360177 -0.0047137346 0.002159464 0.0053201388 0.03221694 0.036241934
0.060364354 -0.09960351 -0.01059011 -0.04406449 0.03049411 0.00571166 -0.01714926 0.020388046
-0.090534315 0.018730642 0.020150447 -0.08868116 -0.06623079 -0.05584745 -0.028078869 0.025403462
-0.09558253 0.028034598 0.023778342 0.012301462 0.09177383 0.013946459 -0.038695015 -0.015048092
-0.040252227 -0.1098556 -0.0022501815 0.061476234 0.019327331 -0.07893944 0.013326534 -0.06551416
0.049072485 -0.042388704 0.080264986 0.082545884 0.07187744 -0.02494447 0.08959464 -0.06511708
0.07011571 0.052730355 0.114359096 0.02271154 -0.008886928 -0.03305543 -0.060977444 0.092986815
0.030575363 -0.060374405 0.0028995003 -0.015064339 0.039135728 -0.092310295 0.10239284 0.09410645
0.033540074 -0.037329428 0.08724696 -0.094530486 -0.08250719 0.08832197 0.09720203 0.025531273
-0.08389718 0.027825981 0.10449194 -0.013854845 -0.054734323 0.082378805 -0.06347952 -0.04356926
-0.050265465 0.064894505 -0.046276398 0.06222741 -0.015248063 -0.024414506 -0.021887168 0.009736956
0.00077441323 0.05515697 0.051183756 -0.039330445 -0.071032144 0.09970229 0.06236775 0.08500006
-0.037569292 -0.02837063 0.026365416 0.007300223 -0.05704606 -0.04654499 -0.001746624 -0.058802865
-0.09636119 0.07990804 -0.060571004 0.036718845 0.027520658 -0.05200516 0.078009166 0.022325104
-0.036734086 0.028609077 -0.0499256 -0.09400841 -0.021638876 -0.082256384 0.029888801 0.07474792
0.03372569 0.11813479 0.0135685885 0.06571354 -0.06362402 -0.07573439 -0.016451474 -0.03316125
0.033801094 0.08164159 0.048453346 -0.0072489693 0.09240947 -0.10395852 -0.08861677 0.0041198055
-0.08803204 0.09674916 0.034278594 -0.07849424 -0.085857645 0.086249426 -0.014248197 -0.10384357
-0.06331095 0.058668844 -0.02896891 -0.0043258043 -0.08888856 0.03764281 0.023390075 0.022511093
0.11004425 -0.06548851 -0.098633975 -0.024603507 -0.027320605 -0.05113757 0.059875738 0.05930176
-0.018463824 0.020806814 -0.101760685 -0.034331493 -0.08309595 0.088876255 0.051859766 0.0153974695
-0.015651435 -0.067998275 -0.042676304 -0.048224244 0.011822074 -0.08147292 0.046239726 -0.08053275
0.05958619 0.008893423 -0.010445034 0.06077835 -0.09265776 -0.028706895 -0.043863762 -0.04327029
-0.0382509 -0.09533228 0.07389152 0.07205832 -0.024084529 0.0306214 -0.014992073 -0.11454608
-0.06563521 -0.10867509 0.048126057 0.004769121 0.01186068 -0.076000184 -0.08429068 -0.1058813

weight f4 [19]
00000000: 325e 803f 98d2 803f a357 803f adb3 7f3f
00000010: 5c58 803f 6821 7f3f 6e3e 7e3f 7419 803f
00000020: bf4b 7f3f 49e6 7f3f 64c2 803f 9821 803f
00000030: 1d8d 7f3f 7545 803f 3c6f 803f 9a08 803f
00000040: 9e06 7f3f 93c8 803f 61ad 7f3f
1.0028746 1.0064268 1.0026745 0.9988354 1.0026965 0.9966035 0.9931401 1.0007768
0.99724954 0.9996076 1.0059323 1.0010252 0.99824697 1.0021197 1.0033946 1.0002625
0.9961947 1.006121 0.9987393

bias f4 [19]
00000000: a52e 8c3a aa7a 033c ddaa e0bb 4962 02bb
00000010: b957 cc3b 080f c0bb 962b ecbb 7b2f 7a3a
00000020: 4ab6 7cbb fbc8 9d3a 5949 3cba f5a4 ef3a
00000030: 9990 67bb de10 8c3b d3e5 383b 5f48 2cbb
00000040: f58d 8ebb 3ae8 ef39 fb61 f0bb
0.0010695053 0.008024851 -0.006856306 -0.0019895008 0.0062360433 -0.005861167 -0.0072073443 0.00095438183
-0.0038560801 0.0012038046 -0.00071825605 0.0018283414 -0.003533399 0.0042744717 0.0028213158 -0.0026288254
-0.0043504187 0.00045758655 -0.007335899

running_mean f4 [19]
00000000: 636b 373e 27c0 133e a3ef 40be b62c f4bd
00000010: 5698 6bbd 11af c7be b05d 7d3d 1c2f 303e
00000020: cd9c 3abe 1842 ac3e 6191 583e fed5 95bd
00000030: b032 aabe f2e3 e9bd 2d39 a6be 3736 37be
00000040: 4da0 dc3d f5f7 b8bc 4b52 c6bd
0.17912059 0.14428769 -0.18841414 -0.119225904 -0.057518326 -0.39000753 0.061856925 0.17205471
-0.18223877 0.33644176 0.21149208 -0.073162064 -0.33241796 -0.1142043 -0.32465497 -0.17891775
0.107727624 -0.022579173 -0.09683665

running_var f4 [19]
00000000: 08b9 ed3d a250 e53d f40f bd3d 9a9b f53d
00000010: ab56 ed3d 9784 203e b2cf ff3d cb52 f43d
00000020: b1f3 023e c9a2 073e cb4c 033e 9800 ea3d
00000030: 35e8 e03d 5563 153e ab75 073e 74ee 153e
00000040: 54cc f53d ccaf d53d 6fc3 f53d
0.116075575 0.1119702 0.092315584 0.11992569 0.11588796 0.15675579 0.124907866 0.11929854
0.12788273 0.13245691 0.12822263 0.114258945 0.1098179 0.14588673 0.1322848 0.14641744
0.12001863 0.10433921 0.120001666

weight f4 [19, 19, 1]
00000000: 8580 b23d 219b f0bd 1b83 1a3d 724f 2dbe
00000010: 2147 40be 5b2d 70bd d3fb ff3d 625f 99bb
00000020: 0878 0dbe cd9e aa3d dd4c 1abe ced2 523e
00000030: e428 4fbe 46cf 6abe 70d3 683e 2b09 1f3e
00000040: d258 3cba e1f3 5abe fd1b 523e 66c1 f23d
00000050: 5715 a23d fe11 40be 02d2 07be babe 593e
00000060: 9bc1 33be cc4e 183e 40c9 5fbe c883 013d
00000070: 4acd 043e f367 993c 0c04 84bd af91 0f3e
00000080: e768 503b 3631 3b3e b35e 083d 0cd5 323e
00000090: 82b0 0c3e bf13 613e 8809 87bd 81b6 2b3e
000000a0: 906e 51be 11fd 2e3e 34a3 2ebb a6e1 113e
000000b0: 1a8d 02be cc48 0cbd dca3 52be 9fa6 a6bd
000000c0: 96cc bebd 1f7f 033d 7d53 853d 3471 1dbe
000000d0: 69a7 04be 7d78 c7bd 5178 f93d 26f0 52be
000000e0: d2e5 38be fc5c 8fbd 1b0f 90bd e23c ef3d
000000f0: 2fe5 073e 8586 173d 302d cebd 5940 113e
00000100: 4058 05be 1b8c f73d 3295 2abe ea48 3b3e
00000110: d988 df3d 7233 3fbe f09d 513c 4966 cd3c
00000120: b4bb 903d e776 e23d b2b9 d0bd 7d09 06be
00000130: 0d86 653d bc71 8cbb 3010 863d 2409 cb3d
00000140: fe53 eabd f160 4dbe 7497 80bd f753 24bd
00000150: 0f6f 63be 480a 933d 553b 5abe b9aa 963d
00000160: 4d43 50be c26b 84bd ae92 933d 5a01 39be
00000170: 7eb3 af3d b915 4e3e 92ca 1cbe df72 6f3c
00000180: 95a9 3ebe 1993 a83d 7a4b 1fbd e828 0fbe
00000190: 55cd 393d 38f1 dc3d 65c7 583e be5c 383e
000001a0: baeb d93c aacb 53be 0156 e43d 9142 2c3e
000001b0: ef16 8ebd 8ca5 faba 4d8d 46be 03ac c03d
000001c0: c48b b5bd a3f7 85bd 5122 5dbe 3a27 563c
000001d0: 6a76 43be d385 143e f2b8 10be dd73 8f3d
000001e0: 78b6 5ebc 6a14 283e 37f8 1f3e 5ca2 413e
000001f0: 8bff 343e 574e c73d 37a8 4d3d 862b 513c
00000200: 8147 05be 3be2 9ebc f842 0bbe 3e09 de3d
00000210: cdc9 c9bd ed86 613e 001f 09be 273e c7bd
00000220: 1b8c 65be 0d59 963d 1157 c5bd 60a7 86bc
00000230: 5985 dd3c 51f2 553e 8c61 16bd 51d3 85bc
00000240: b779 893d 4aed 433e a612 00be 4bd9 5d3e
00000250: 0a85 d03d 9de5 24be e0fc 023e cac5 fa3d
00000260: edaf f5bd cfe4 733d 3400 12be 971e 2a3e
00000270: aced b9bd 9e05 ef3d 8613 033d dffd bf3c
00000280: 277f 153e e8ef 46be 493d 4fbd b464 05be
00000290: c577 3abd 9913 58bb 2b88 673e 9979 473e
000002a0: bcb4 05be 920f 5f3d a85f 643e 4e40 02bd
000002b0: 9fd3 643e f149 3abe 23e4 1c3d 0530 0e3d
000002c0: 1e8d b83d 4e2a 0ebe 6539 f6bd 7bd0 5bbd
000002d0: 06aa dcbd c1ab 3b3e 8743 4ebc 6263 8c3d
000002e0: b670 2b3d b8c2 ec3b c36b 2bbe 4425 aabd
000002f0: 426e fabd 7d35 0e3e 14a3 493e 4786 43be
00000300: 9283 5d3e 6b43 bd3c 78ed bfbd 7d5a 293e
00000310: 2077 eabc 95c8 9f3c ff66 503e 47ef d7bd
00000320: a4d5 e6bd dfef 1a3b 5d20 803d ffae 653e
00000330: 1c8c 0d3e 2421 bd3c 6e05 093e 91cb 213e
00000340: b3ef 963d efdd 1b3e 8067 623e 1201 fcbd
00000350: f31a 64be ddcf d2bd e2f3 483e 374e 3d3c
00000360: bc9d 7f3c de4d 35be c7d2 4c3e b60f e23d
00000370: d906 b1bc c037 00be 6387 063d 8298 553e
00000380: 07c2 9dbc a9a3 c43d a595 5b3e 8f8f 23be
00000390: f1c8 503d 2cbf 34bd 5fdc ba3c f795 20be
000003a0: 3f7b f63d 3351 a33c 2d3d a73d 0905 e3bd
000003b0: 6566 343d bc9c 39be fd06 f43d dbf8 38be
000003c0: 5d3b 32bb 82c0 a53d fbbe d3bc f6eb 48be
000003d0: b94c ffbc 9724 383e 7494 213d 434c 1bbe
000003e0: a209 3dbe dcda 873c da52 c23d cf94 6e3c
000003f0: 3fe1 3cbd 93e1 233e f8cd 8e3d 0ace 52be
0.087159194 -0.117483385 0.03772269 -0.16924837 -0.18777134 -0.058637004 0.124992035 -0.00468056
-0.1381532 0.0833107 -0.15068384 0.20588228 -0.20230442 -0.22930631 0.22736907 0.15530841
-0.0007184866 -0.21382095 0.20518489 0.11853294 0.079142265 -0.18756863 -0.13263705 0.21264163
-0.17554323 0.14873809 -0.21854115 0.031619817 0.12968937 0.018726325 -0.064460844 0.14020418
0.0031800808 0.18280491 0.033293437 0.17464083 0.13739207 0.21980189 -0.06593615 0.16768838
-0.20452332 0.17088725 -0.002664757 0.14246234 -0.12749138 -0.034249112 -0.2057032 -0.08137249
-0.093163654 0.032103654 0.06510065 -0.15375215 -0.12954487 -0.09739778 0.12181152 -0.20599422
-0.1805642 -0.07000157 -0.07034131 0.11681534 0.1327102 0.036993522 -0.100672126 0.14184703
-0.13021946 0.1208727 -0.16658476 0.18289533 0.109147735 -0.18671969 0.012794003 0.025073187
0.070670515 0.11057835 -0.101916686 -0.13089557 0.056036044 -0.004286019 0.06546056 0.09913853
-0.114418015 -0.20056511 -0.062788874 -0.040119138 -0.22210334 0.07179695 -0.21311696 0.073567815
-0.20338173 -0.06465866 0.07205711 -0.18066922 0.08579157 0.20125474 -0.1531165 0.01461479
-0.18619378 0.08231182 -0.03889034 -0.13980448 0.045361836 0.10788196 0.21169813 0.18004128
0.026601661 -0.2068316 0.111492164 0.16822268 -0.06937968 -0.0019122823 -0.1938984 0.09407809
-0.08864549 -0.065413736 -0.21595122 0.013070876 -0.1908814 0.14504175 -0.14133051 0.07004521
-0.013593309 0.16414037 0.1562203 0.18909591 0.17675607 0.09731739 0.05020925 0.012766724
-0.13015558 -0.019394984 -0.13599765 0.108416066 -0.098529436 0.22024126 -0.13390732 -0.097286515
-0.22416727 0.07341204 -0.09635747 -0.016437232 0.027041124 0.20893218 -0.03671412 -0.016336115
0.067126684 0.19133487 -0.12507114 0.21664922 0.10181625 -0.16103216 0.12791777 0.122447565
-0.11996446 0.05954438 -0.1425789 0.16613232 -0.090785354 0.11670993 0.03200104 0.023436485
0.14599286 -0.19427454 -0.050595555 -0.13026696 -0.045524377 -0.0032970665 0.22610538 0.1947998
-0.13057226 0.05445821 0.22302115 -0.031799607 0.22346352 -0.18192269 0.038303506 0.034713764
0.09011291 -0.13883325 -0.12022666 -0.05366562 -0.10774617 0.18327238 -0.012589342 0.06854893
0.041855536 0.0072253607 -0.16740327 -0.08307889 -0.12228061 0.13887592 0.19691116 -0.19094191
0.21632221 0.023103436 -0.093714654 0.16538425 -0.028621256 0.019504825 0.2035179 -0.105436854
-0.112712175 0.002364151 0.06256173 0.22430037 0.13822979 0.023087092 0.13380978 0.1580031
0.07369938 0.1522138 0.22109795 -0.12304892 -0.22275905 -0.10293553 0.19624284 0.011554292
0.015601572 -0.17705485 0.2000228 0.11038153 -0.02160971 -0.12521267 0.03284396 0.20858958
-0.019257559 0.09601528 0.21443804 -0.15972732 0.050972883 -0.04412763 0.02281016 -0.15682207
0.12035226 0.01993618 0.08165965 -0.11084945 0.044042964 -0.18126196 0.119153954 -0.18063681
-0.0027196028 0.080933586 -0.025847903 -0.19621262 -0.031164514 0.17982708 0.039448217 -0.1516581
-0.18460706 0.016583852 0.09488459 0.014561846 -0.04611325 0.16004018 0.06972879 -0.2058641

weight f4 [19]
00000000: 5a3c 803f 8ae4 7f3f 4c0d 803f d858 7f3f
00000010: c8b9 803f 69c3 7f3f 81eb 7e3f f28a 7f3f
00000020: 5d66 7f3f 8b33 803f 6c34 803f 7952 803f
00000030: 9558 803f 0f1a 803f 62fc 7e3f c45a 7d3f
00000040: 8f2a 803f 8fc0 7f3f f165 803f
1.0018418 0.999581 1.0004058 0.9974494 1.0056696 0.9990755 0.995781 0.9982139
0.9976557 1.001573 1.0015998 1.0025169 1.0027033 1.0007952 0.99603856 0.9896662
1.0012988 0.99903196 1.003111

bias f4 [19]
00000000: 87f0 3b3c 1078 05bc 7f05 733b 779a b5bb
00000010: e3bf 223c ed38 593b e708 c0ba 1673 a1b9
00000020: 3d94 8c3b daf3 b53b 574c 523b 1c99 ee3b
00000030: b4aa 1e3a e101 6b3a 6ccc 12bb f27e d7bb
00000040: 0179 8b3b 030a a5bb 5113 d83b
0.01147092 -0.008146301 0.0037082133 -0.0055420953 0.009933445 0.0033145503 -0.0014651091 -0.0003079406
0.0042901323 0.005552751 0.003208896 0.0072814357 0.00060526584 0.00089648186 -0.0022399677 -0.0065764124
0.004256368 -0.005036594 0.0065940996

running_mean f4 [19]
00000000: 8e3d bd3e c97a 343f 92e9 80be 116e 663e
00000010: 8342 ce3b 1e77 a2bd 3ed6 db3e d586 093f
00000020: f899 683e fc3a 073f 981a 4b3f 13b9 b33e
00000030: 947f 02be 1445 553d c15a 45be c472 663e
00000040: 0ae6 963e d7a2 b53d 34b1 9c3e
0.36961025 0.70499855 -0.251782 0.22502925 0.00629455 -0.07932876 0.4293689 0.5372136
0.22714984 0.5282438 0.79337454 0.35102138 -0.1274398 0.05206783 -0.19272901 0.22504717
0.2947238 0.0886895 0.30603945

running_var f4 [19]
00000000: 35a5 5c3e d941 853e e3c9 893d cdfe 5b3e
00000010: a587 0a3e 547a 523e 333e 2e3e ce08 153e
00000020: 9c84 8a3e dfaf de3d 17b7 243e 1e65 423e
00000030: 8d1e fd3d dbc9 353e 434a 0c3e 80ce d23d
00000040: 0387 193e 46a0 e13d 2308 f23d
0.21547396 0.260268 0.0672796 0.21483918 0.13528307 0.20554477 0.17015915 0.1455414
0.27054298 0.108733885 0.16085468 0.18983886 0.12359343 0.17752783 0.13700204 0.10293293
0.14992909 0.11016898 0.11817958

weight f4 [22, 19, 5]
00000000: bab1 d3bc e316 a63d c287 b93d 5a5a 973b
00000010: 802d d0bd 9cb3 bdbd 7453 83bd df8c bebd
00000020: d140 65bd 1147 7dbc fa63 833d 15b5 933d
00000030: ade8 a33d 72a3 4bbc 0436 b33d ac59 023d
00000040: 2b63 c0bd f7b5 743d 25c8 2c3d 85d1 80bc
00000050: 417e b9bc a4ea dd3c 137a 903d 0d9c 05bd
00000060: fb15 a93d 6262 b53d c2f5 713d cb58 3b3d
00000070: c835 cdbd 4f13 bcbc c929 d6bc 7fc7 29bd
00000080: 510a 193d 4d5d b7bd d59e 843d 5327 2b3d
00000090: f353 94bc fcd1 82bd 5a54 d03c 1cc6 82bd
000000a0: fd15 873d 8a00 bf3c ccce cb3c efcc 90bd
000000b0: 33fc 803d 9a75 f0bc 6ee7 fe3c e0f5 75bd
000000c0: 0141 a4bd e6ce c13d 8b71 c7bd fdfe 05bd
000000d0: 4055 bfbd 3a13 bfbd 5dae 553d 12bc b1bd
000000e0: 7245 28bd 369b ab3d 4c53 683d 4ffa 483d
000000f0: 6323 d6bc 7e8a b23d 3e0a 0bbc 00be ba3b
00000100: cec8 2fbc 6e32 7a3d 7cb9 00bd a796 c4bd
00000110: 2def d938 66ed a33d 35ed 89bd d477 fa3c
00000120: 260f be3d df04 74bd 493d 003c a2dc 4dbc
00000130: 39f8 3f3d 3214 d0bc 2b85 173d feb3 aebd
00000140: 39ad b3bd e3fc 83bd e73f 593d 75ae f5bc
00000150: 26f8 99bd 7202 b43d 6056 9f3d aadd a0bd
00000160: 657c c93d 9cde b7bc 76bc db3c a7cc 503c
00000170: ce25 e23a 1f80 a0bd 14d9 abbd 46b6 b0bd
00000180: ba9f 183d 175d aa3d 9332 c53d 205b b9bc
00000190: fb19 bc3d 9b9e e1bb e66d 963d fa2d 893d
000001a0: 6f11 a2bd 7906 b03d 8a7d 94bd 2b7a 06bd
000001b0: 2169 9dbd 72e5 623d bb04 b1bc 8fed b03d
000001c0: 2b0b 8839 c98d 883d b964 95bc ad1e 95bd
000001d0: 1335 b23d 7605 4e3b ebd3 8fbd 7c95 8f3d
000001e0: f063 893d 477b 98bd 419e 7ebd f227 9cbd
000001f0: 7309 89bd 9e9b bb3d 4852 a83d b657 ae3c
00000200: 1623 983c f953 973d a874 ae3d 25db e73a
00000210: 2715 7f3d a0e2 8cbd 7dbf 873d 407f 853c
00000220: 9271 e4bc 464c 7dbd a9c7 42bd b60f 9dbb
00000230: c5b7 933d 0f30 50bd 8723 adbd 64fd a8bb
00000240: 2594 b6bd 8af6 a6bd 9a14 963d 786c 863d
00000250: 1728 663d 2a97 d03c 7f70 8fbd 7b03 2e3d
00000260: 19ac 5ebd b5cc 9b3d b8ea 32bd 180d 853d
00000270: 66c5 733d 168c 61bd 38bd 08bc 08d0 c73d
00000280: eae8 9a3d 86fc bdbd 70d7 cdbd b2a5 06bd
00000290: 74fc e43c 8dcb 85bc 20ff 14bc a024 2d3d
000002a0: db6e 9ebd 5a29 b13d 6cbd a3bd 5fb0 56ba
000002b0: aa72 28bd 774c 0ebd a1db 883d 0f3d d3bc
000002c0: 5012 8cbd a211 2ebd 779b 19bd c9e8 babd
000002d0: 74cc 093d 738c d43c e058 963d 8f3c 30bd
000002e0: bcb4 c63d 0c92 9d3d da0f c63c 456f f5bc
000002f0: 6bd1 4cbd 3c98 763d 62b7 763d a31e 9bbc
00000300: a56b a3bd d2b4 163d e755 af3d 935b 863d
00000310: e2c6 a3bd b2c1 a23d 4e6e 6e3d daf4 273c
00000320: c029 37bd 8756 513d 2cdb 813c 933e c23d
00000330: d16e 3d3c 1ced d8ba 209b d6bd d991 8dbd
00000340: 946c a2bd 0b39 a33d 93a8 1438 1eb3 b8bd
00000350: af95 4dbd 4e87 c1bd f322 4cbd 8d21 0abd
00000360: 8af9 873d b328 b63d ef33 a1bd b78e 8fbc
00000370: 4035 0f3d 8a6c cabd 714c 12bd e19a 973c
00000380: f6c2 913d d442 3c3d 4d1e 13bd f917 cc3d
00000390: 0e99 c9bd 4bbc 553c 0efc 653d 1fab c13d
000003a0: fd73 8abd 876e 563c 8b24 573c ed3c c03c
000003b0: dc5e 54bd d194 16bd 7600 bfbd f45a 69bd
000003c0: ffb2 993d 0800 04bd f873 b73d b06a a83d
000003d0: d35e 5a3c 1b81 04bd a738 c43d 5bbb 29bd
000003e0: bb32 bcbd a31a 613d c555 273d e401 543d
000003f0: 4995 2b3d 8766 5b3b 7849 543c 1cac d0bd
-0.025841583 0.08109834 0.09059097 0.004618925 -0.101649284 -0.092627734 -0.06412402 -0.09304213
-0.055970017 -0.015458838 0.064155534 0.07212273 0.08003364 -0.012429105 0.08750537 0.0318238
-0.09393915 0.059743848 0.04218306 -0.015724907 -0.02264321 0.027089424 0.07054534 -0.032619525
0.082561456 0.08856656 0.059072264 0.045738976 -0.100200236 -0.022958426 -0.026142972 -0.04145002
0.037363354 -0.089533426 0.06475607 0.04178555 -0.018106436 -0.063877076 0.025430847 -0.063854426
0.06595991 0.023315687 0.024878882 -0.07070338 0.06298103 -0.029352952 0.031116214 -0.060048938
-0.08020211 0.09463291 -0.097384535 -0.03271388 -0.09342432 -0.09329839 0.05216824 -0.0867845
-0.041081853 0.083792135 0.056720063 0.049066838 -0.02613992 0.087178215 -0.008486329 0.0056989193
-0.010729028 0.06108325 -0.03142689 -0.09599047 0.00010391916 0.080042645 -0.06734697 0.030574717
0.09280233 -0.059574958 0.0078271115 -0.01256481 0.046867583 -0.025400255 0.036992233 -0.085304245
-0.08773274 -0.06444719 0.053039458 -0.029990414 -0.07518034 0.08789529 0.077801466 -0.07854779
0.098381795 -0.022445016 0.026823264 0.012744105 0.0017253698 -0.07836937 -0.08391014 -0.08628516
0.037261702 0.08318537 0.09628787 -0.02262646 0.09184643 -0.0068853623 0.0734518 0.066982225
-0.079134814 0.085949846 -0.07250507 -0.032831352 -0.076860674 0.055394597 -0.021608701 0.08639061
0.00025948262 0.06667668 -0.018236505 -0.072812416 0.08701529 0.003143636 -0.07022842 0.07010934
0.06708515 -0.07445388 -0.06216264 -0.076248065 -0.066912554 0.09160541 0.08218819 0.021282058
0.018571418 0.073890634 0.08518344 0.0017689212 0.06227603 -0.06879163 0.0662832 0.01629603
-0.027886186 -0.06184032 -0.047553692 -0.0047931327 0.07212786 -0.050827082 -0.08454042 -0.0051571596
-0.08914975 -0.08152492 0.07328148 0.065636575 0.056190576 0.025462706 -0.07003879 0.042483788
-0.054363344 0.07607404 -0.043680876 0.06496638 0.059514426 -0.055065237 -0.0083458945 0.09756476
0.07563956 -0.09276681 -0.10050857 -0.032872863 0.02795241 -0.016332412 -0.00909403 0.042271256
-0.07735988 0.08650465 -0.07995114 -0.00081897335 -0.041124977 -0.03474089 0.06682516 -0.025785951
-0.0683943 -0.042497285 -0.03750178 -0.091264315 0.033642247 0.025945878 0.0734117 -0.043026503
0.09702441 0.07693872 0.02417748 -0.029960284 -0.050004404 0.060203776 0.06023348 -0.018935507
-0.07979516 0.036793537 0.085613064 0.06560435 -0.07996918 0.07947101 0.058210663 0.010251248
-0.04471755 0.05110791 0.01585158 0.09484591 0.011562065 -0.0016550156 -0.104788065 -0.06912584
-0.07930866 0.079698645 3.5442947e-05 -0.09018539 -0.050191578 -0.094496354 -0.049838018 -0.033723403
0.06639393 0.088944815 -0.07871234 -0.017524106 0.034962893 -0.098839834 -0.03571743 0.01850647
0.07117264 0.04596217 -0.03591757 0.0996551 -0.09843646 0.013045381 0.05614858 0.09456467
-0.06760404 0.013087875 0.013131271 0.023466552 -0.051848277 -0.036763016 -0.0932626 -0.056971505
0.07504844 -0.032226592 0.08957666 0.08223474 0.013328272 -0.032349687 0.09581118 -0.04143844
-0.091893636 0.054957043 0.04085328 0.051759616 0.041890416 0.003347786 0.012956969 -0.10189077

weight f4 [22]
00000000: dee6 7f3f aa03 803f 0ef3 7f3f 2e0d 803f
00000010: 6c67 803f bc38 7e3f 5119 803f 8378 7f3f
00000020: 7f7e 803f bdbd 7f3f 1b3e 803f 1684 7f3f
00000030: 8364 803f b33e 803f 5f73 803f 6ce0 7f3f
00000040: 534e 803f dd29 803f a4c7 7e3f 99f4 803f
00000050: c454 803f 8192 7e3f
0.9996165 1.0001118 0.9998025 1.0004022 1.0031562 0.9930532 1.0007726 0.9979326
1.0038604 0.9989889 1.0018953 0.9981092 1.0030674 1.0019134 1.0035208 0.99951816
1.0023903 1.0012776 0.9952338 1.0074645 1.0025868 0.994423

bias f4 [22]
00000000: afda e7ba d90a cdbb f57c 89ba 8bf6 8fba
00000010: b2aa 613b 5e6c 83bb c9f4 e7b9 1332 90bb
00000020: cb7a 9b3b 9282 bfbb f40a bcb9 3e01 3b3b
00000030: c234 0dbb 0810 2d3b 6c1b 883b 58cf a73b
00000040: 2a88 2f3b a24d 05ba 28aa e5ba d167 543b
00000050: e3f8 d23b 0d6b 82bb
-0.0017689074 -0.0062573967 -0.0010489511 -0.001098351 0.0034434018 -0.004010721 -0.00044242133 -0.0044005006
0.0047448627 -0.0058444226 -0.00035866315 0.0028534676 -0.0021546339 0.002640726 0.0041536596 0.005121153
0.002678404 -0.00050851156 -0.0017522024 0.0032410512 0.006438361 -0.0039800466

running_mean f4 [22]
00000000: bada 43bd 18ad bd3d 767b e3bd 3b91 a03e
00000010: c026 51bd 278b 85bd e273 b7bd 669e 96be
00000020: 1069 9abd f7b3 17be e788 d03d 956c b73d
00000030: ad7a 433e a94f 993d affa ad3e e129 93be
00000040: e7ee a73c 21a0 e0bd 9a1c c8bc 2edc 3abd
00000050: 3917 e5bd 3682 aebd
-0.047816016 0.09261531 -0.11107533 0.31360802 -0.051062346 -0.06520682 -0.0895765 -0.29417723
-0.0753957 -0.14814745 0.10182362 0.08956257 0.19089766 0.07485897 0.3398032 -0.2874289
0.02049966 -0.10968042 -0.0244277 -0.045620136 -0.1118607 -0.085209295

running_var f4 [22]
00000000: d721 213e fef6 1f3e 1b23 1a3e 0819 003e
00000010: f61f fc3d 5b89 193e 0387 233e f162 013e
00000020: e0b0 e73d 5221 143e e995 073e 4c3a fa3d
00000030: dfee 0f3e 5470 dc3d e8da fd3d 1125 0d3e
00000040: b606 d13d 8215 e13d f0f0 063e 70db c13d
00000050: 63f7 293e c4bf b63d
0.15735565 0.15621564 0.15052454 0.12509549 0.123107836 0.14993803 0.15969472 0.126354
0.11313033 0.14465836 0.1324078 0.122181505 0.14055966 0.107636124 0.12395269 0.13783671
0.10206358 0.109904304 0.13177848 0.094656825 0.16598277 0.08923295

weight f4 [22, 22, 1]
00000000: 2572 20be 55b7 153e dab7 023e d2e2 6e3d
00000010: 7f7a 203b 07b5 e43d 4dcb 223e 70c1 d33d
00000020: fe4a f8bc d4d6 d6bb f28d 80bd 9f6d 4dbe
00000030: a9bd f63d 4f11 1cbe 0f60 5f3d 1d12 233b
00000040: 6290 143e 129e 473d 6acb 1d3e 9a28 203e
00000050: 21ee 8dbd 8110 623d 3550 25be 8846 5dbe
00000060: 284c 173e b73c 093e 2fd9 25be bebf 2ebe
00000070: 7c96 3abe b43a 3e3e b25e 233d 9821 b53d
00000080: f197 053e 7874 fdbd 6cbc d0bc 553c 173e
00000090: 67fe 5f3c 7856 3d3e bd26 e1bd 80d7 36be
000000a0: ec53 febd 1829 3e3e 11e2 863d d700 3abe
000000b0: 4596 523e 73fb 533e ebb9 dcbd c9c2 43be
000000c0: ef59 10be d658 e2bd d901 adbc 3a6a f6bd
000000d0: 8b74 d2bc 68bb 203e 4d2c 41be 9fb3 173e
000000e0: 43a6 0ebe 1a63 203c 5a7d 553e 90e4 bb3d
000000f0: d2c4 c9bc 8fae 1b3e cf82 913d 1bf4 093e
00000100: ee7a d9bd eb0c 813d 8e78 123e c2f2 2f3d
00000110: 027f 32be 76eb 31bd ea7b 40bd 77b1 f33d
00000120: b506 27be 1f6b f03d 6801 fe3c 6c40 d93d
00000130: 1f44 b9bd aa1c cabc d1da b9bc 30e3 fabd
00000140: 2bd4 463e ccd7 0f3b bf6d 13be 9a12 233e
00000150: d8c2 243e e40c 133e a0e2 9bbd b5e6 12be
00000160: eac5 fabd f94e 03bd f819 c3bd 20b8 29bc
00000170: 66c8 2cbd 3ad9 073e dae3 90bc 80bc 4c3d
00000180: c575 983d 2057 2b3e f8f3 da3d 3c5c 293e
00000190: 465f 573c 1ecf d83d 256f 8a3c df70 9fbc
000001a0: cf93 90bd acf2 543e b922 803d ca36 bcbd
000001b0: d24c d6bd 3319 9f3d 4b26 1ebe fc37 ed3d
000001c0: 0d38 3dbe e12a 913d 9c3b 19bd 1c35 f13d
000001d0: cee3 38be 3ab8 383e 0a2d 2e3e 5e1d 1fbe
000001e0: c734 2e3d 34c1 27be 0a36 0fbc bf01 52bd
000001f0: 2c04 f7bd 6912 383d a3b7 293d cf73 9c3c
00000200: 1352 f1bd d1ba 36be 13de 1f3e f5ee 3abe
00000210: b7e2 d939 1acf a4bb 4da5 d7bd 5f5d 00be
00000220: dc31 87bc 43bc 353e 752a 173c 2a4e 373e
00000230: 482d 223e 1628 543e 64af 123e d24b 0abd
00000240: 549f 3f3e c93c b4bc dea0 433e 59b6 03bd
00000250: b85b 963d da7b 163e b1a3 023e a47b 18bd
00000260: 7e71 023e 40f9 413e aec0 453d 62a5 d63d
00000270: 3b56 19bc 734e 89bd 0081 8abd f1d5 01bd
00000280: 2f33 c5bd 00e5 df3d effb 67ba af4e e03c
00000290: 1651 b2bb e36c 9cba 5f68 993d a427 64bd
000002a0: 2156 8ebd 100f 663e 3ea4 3a3e 9a20 a5bd
000002b0: a82d c4bd 20a5 02be da8f a8bd 1ca8 303d
000002c0: 7c95 0ebe 555b 50be f050 783d fc15 213e
000002d0: 2b68 33be 70ae 38bd e303 a23c 6ee3 e2bd
000002e0: f6f8 323e 4bf9 30bd cfb3 973d 4758 1fbe
000002f0: 2fbd 43bd 74aa f4bd bd4f 183e 2b83 1c3e
00000300: 5d9a 05be ccbe 42be b3e0 bcbd cc0c 57bc
00000310: 36a4 18be 7283 393e b9ce 58bc b4b8 1cbe
00000320: a4ae 09be c866 063e f0be b33d 0805 563e
00000330: 590e 3bbe ae62 58be 8639 c43d 1cee 453e
00000340: 2ec9 c6bc b068 143e 1fbe eabc 14b2 493e
00000350: 39e8 15be 1846 26bb a154 573b ab8e 61bc
00000360: 101f ce3d dfbe 81bc 4026 47be e0fb a3bd
00000370: c96f 923d f27c e73d 5bfe d13d 6d35 543e
00000380: 44d8 36be 4efc 3e3e f91d 1e3e e407 21be
00000390: 865a d1bc 5a3b 103e aede 0abe 55ba c1bd
000003a0: 475c 9a3d 7506 adbd 6056 2fbd 07cd 3dbe
000003b0: 8000 a0bd 25ed 283e c414 9fbd f0cd f83b
000003c0: 97f3 b13d 90ea b33a c5a0 e7bc f394 203e
000003d0: dba7 1bbe 9b70 51bd 3455 04be 5b79 7abd
000003e0: 41bb 08be 6dce f63d 3399 263e 48b4 bebc
000003f0: 4930 513e ba61 623d daa2 31be 6afc dbbd
-0.15668543 0.14620717 0.12765446 0.05832178 0.0024487076 0.11167341 0.15897866 0.1033963
-0.030309197 -0.006556371 -0.06277074 -0.20061348 0.120478936 -0.15240978 0.054534968 0.0024882623
0.14508203 0.048734732 0.15409628 0.15640488 -0.06930185 0.05519152 -0.16143878 -0.21608937
0.14775145 0.13402067 -0.1619613 -0.17065331 -0.18221468 0.18577081 0.03988523 0.08844298
0.13046242 -0.1237573 -0.025480472 0.14769109 0.013671494 0.18490016 -0.10993717 -0.17855644
-0.124183506 0.18570364 0.065860875 -0.18164383 0.20565136 0.20701389 -0.107776485 -0.19117273
-0.14096807 -0.110521 -0.021119045 -0.1203198 -0.025690338 0.1569649 -0.18864556 0.14814614
-0.13930611 0.009789253 0.20848599 0.09174454 -0.024629984 0.15203308 0.07105028 0.13472025
-0.1061915 0.06301292 0.143038 0.04295612 -0.17431262 -0.043437444 -0.046993174 0.11899083
-0.16311152 0.11739182 0.03100653 0.106079906 -0.09046196 -0.024671871 -0.022687348 -0.12250364
0.19416873 0.0021948693 -0.14397334 0.15925065 0.16089952 0.14360386 -0.07611585 -0.1434582
-0.1224478 -0.032057736 -0.095264375 -0.01035884 -0.042183302 0.13266459 -0.017686773 0.049984455
0.07444338 0.16732454 0.106910646 0.16539091 0.013145274 0.105863795 0.016898701 -0.019463
-0.07059442 0.20795697 0.06256623 -0.09190138 -0.10463871 0.07768478 -0.15444295 0.11582944
-0.18478413 0.070882566 -0.037410364 0.11777708 -0.1805565 0.18039027 0.17009369 -0.15538546
0.0425308 -0.16382295 -0.008740911 -0.051271196 -0.120613426 0.044939432 0.041434895 0.01909819
-0.117832325 -0.17844702 0.15612058 -0.18255217 0.0004155838 -0.0050295712 -0.105295755 -0.12535618
-0.016503267 0.17747597 0.009226431 0.17900911 0.15837586 0.20718417 0.14324719 -0.033763714
0.18713123 -0.02200164 0.19104335 -0.032156322 0.07341713 0.14695683 0.12757756 -0.037227288
0.12738606 0.18942738 0.048279457 0.10480763 -0.009358938 -0.06704416 -0.06762886 -0.03169817
-0.09628903 0.1093235 -0.0008849492 0.02738127 -0.005441795 -0.0011934306 0.0749061 -0.055701867
-0.069500215 0.22466683 0.18226716 -0.08062859 -0.09579021 -0.12758303 -0.082305625 0.04312907
-0.13924211 -0.2034734 0.060624063 0.15731043 -0.17520206 -0.04508823 0.019777244 -0.11078535
0.17477784 -0.043206494 0.07407343 -0.15561019 -0.04778784 -0.11946574 0.14874168 0.15284412
-0.13047166 -0.19018096 -0.092225455 -0.01312561 -0.14906392 0.18116549 -0.01323288 -0.15304834
-0.13445526 0.13125145 0.08776653 0.20900357 -0.18267192 -0.21131393 0.09581284 0.19329113
-0.024265852 0.1449306 -0.02865511 0.19696838 -0.14639367 -0.002537137 0.003285684 -0.013766925
0.100645185 -0.015838085 -0.19448185 -0.08007026 0.071502276 0.11303128 0.102535926 0.20723505
-0.17855936 0.18650934 0.15441121 -0.15725666 -0.02555586 0.14085141 -0.13561508 -0.09459368
0.07537132 -0.08448497 -0.042806983 -0.18535243 -0.07812595 0.16496713 -0.077676326 0.007592909
0.08689039 0.0013726521 -0.028274903 0.1568182 -0.1520075 -0.05113278 -0.12923127 -0.06115089
-0.13352682 0.12051091 0.16269378 -0.023279324 0.20428576 0.05526898 -0.17347279 -0.107415035

weight f4 [22]
00000000: 1da9 803f d2d9 7e3f 3ecb 7e3f 575c 803f
00000010: 5879 7e3f 8404 803f e411 803f 560f 813f
00000020: 8ba6 7f3f 462e 803f 96f9 7f3f 458a 803f
00000030: e847 803f e077 7f3f 8169 803f 3a04 7d3f
00000040: 8122 813f e02b 803f 9587 7f3f 0ef8 7f3f
00000050: 820c 7f3f cb11 7e3f
1.0051609 0.9955112 0.9952887 1.002818 0.99403906 1.0001378 1.000546 1.0082805
0.998635 1.0014122 0.9999021 1.0042197 1.0021944 0.9979229 1.0032197 0.98834574
1.0088655 1.001339 0.99816257 0.99987876 0.9962846 0.992459

bias f4 [22]
00000000: 6424 593c cc10 b63b f322 683b 0e30 0038
00000010: 28b9 6bbb 05b6 81b9 e7bd cf3b 5c0b 1f3b
00000020: f45d 283a 58b2 e3bb f7e2 6f3b ceb8 003c
00000030: 5c35 8b3b 5500 8ebb 5ac7 ecb9 2255 42bc
00000040: 8269 263c 1225 5bbb c4d5 44bb 14a0 aa3b
00000050: 6a58 65bc 8cb1 27bc
0.013253305 0.0055562016 0.0035421222 3.0562333e-05 -0.0035968516 -0.00024740412 0.006339777 0.0024268245
0.00064226915 -0.0069487505 0.0036603787 0.007856561 0.0042483043 -0.0043335357 -0.00045161956 -0.011861118
0.010156991 -0.0033438844 -0.003003464 0.005207071 -0.01399813 -0.010235202

running_mean f4 [22]
00000000: f4df cf3e 9ec7 943e 2853 5c3e 4d96 163f
00000010: d643 b13e ea89 5c3d f4cf 193f 98f0 20bd
00000020: f659 853d 0a7d 093e d651 d03e 51aa 813e
00000030: c737 dd3e abcc 873e 2a58 743f 8703 8f3e
00000040: f619 c63d fa92 043f 3802 a63e a348 2f3d
00000050: 8a28 343e 5aa7 9f3e
0.4060055 0.29058546 0.21516097 0.5882309 0.34622067 0.053842463 0.60082936 -0.039291948
0.06511299 0.13426605 0.40687436 0.25325254 0.43206617 0.26523337 0.9544703 0.2793238
0.096729204 0.5178677 0.32423568 0.04279388 0.1759359 0.31182367

running_var f4 [22]
00000000: 5c01 1d3e ff2b 353e bd15 663e 1de7 163e
00000010: 26c4 f73d 3e17 603e 6f7f 673e 18aa 3c3e
00000020: 31ff 5f3e 5d64 793e 6e78 f93d 3da4 3a3e
00000030: a704 083e f5ec 2c3e 1cb2 943e f009 5d3e
00000040: 7766 993d 70b3 3a3e 5833 863e e8f5 c43d
00000050: 828a 4c3e 38e2 6b3e
0.1533255 0.17692564 0.2246923 0.147366 0.12097959 0.21883866 0.22607206 0.1842426
0.21874692 0.24354692 0.12181173 0.18226714 0.13283025 0.16887267 0.29042137 0.21585822
0.07490247 0.18232512 0.26211047 0.096172154 0.19974712 0.23035514
